fashion_model.pth (torch, 831585 bytes, 8 tensors)

cnn_stack.0.weight f4 [16, 1, 3, 3]
0	0xbe9c1156	-0.30481976
1	0x3df7d1dc	0.121005744
2	0xbe139b93	-0.14414816
3	0xbe83f67b	-0.25773987
4	0xbe47dbc5	-0.19517429
5	0xbdf06e5c	-0.117397994
6	0xbd8ee8d9	-0.06978006
7	0xbe19cb33	-0.1501892
8	0xbe996e9f	-0.2996721
9	0x3eea57a5	0.45769992
10	0x3dd547af	0.10414063
11	0xbd4c4874	-0.049873784
12	0x3ed8b461	0.42325118
13	0x3d19b84a	0.037529267
14	0xbaad3d88	-0.001321719
15	0x3ec6ebad	0.3885168
16	0x3ed65ce5	0.41867748
17	0x3e048837	0.12942587
18	0x3eccd740	0.40007973
19	0x3e9449b5	0.28962484
20	0x3cb1b33a	0.021691907
21	0xbe3cae1f	-0.18425797
22	0x3e35a53d	0.17738815
23	0x3e96dbef	0.2946467
24	0x3e46b9d1	0.19406821
25	0x3ef54f8a	0.47912246
26	0x3edb13ea	0.4278863
27	0x3e85235b	0.26003537
28	0x3e8bac89	0.2728007
29	0xbe90d9c0	-0.2829113
30	0xbe7de644	-0.2479487
31	0xbe2d1812	-0.16903713
32	0x3ddcea79	0.107869096
33	0x3e9dba52	0.30806214
34	0xbde79bf8	-0.113090456
35	0xbe2b2767	-0.1671425
36	0xbe9eb354	-0.30996192
37	0x3e7f995b	0.24960844
38	0xbd53cc34	-0.051708415
39	0xbe4ce99e	-0.20010993
40	0xbdd257cb	-0.102706514
41	0xbe4720a2	-0.19446042
42	0x3e11ca79	0.14237393
43	0xbe22680b	-0.15860002
44	0x3e30caff	0.17264937
45	0xbc83dd2c	-0.016096674
46	0x3c241e52	0.010016995
47	0x3eb3252f	0.34989306
48	0xbe83a9a2	-0.25715357
49	0x3d36a6ac	0.044592544
50	0x3e8b6ffe	0.2723388
51	0x3df47c12	0.11937727
52	0x3cd9e8df	0.0266003
53	0x3e706f95	0.23480065
54	0x3dab2d25	0.0835822
55	0xbe102bb4	-0.14079171
56	0xbe82f35d	-0.25576296
57	0x3d21459e	0.039373033
58	0xbe7faf61	-0.24969245
59	0x3c6af755	0.014341195
60	0x3d211d99	0.039334867
61	0xbc812df2	-0.015768979
62	0xbd3ea381	-0.04654265
63	0xbc479d7b	-0.012183542
64	0xbcc7b790	-0.024379522
65	0x3b1b0284	0.0023652622
66	0xbe3a6a84	-0.18204695
67	0xbc9b4c0e	-0.018957164
68	0xbe4013f9	-0.18757619
69	0xbd6798b8	-0.05654213
70	0x3e051df3	0.12999706
71	0xbe931e6b	-0.28734145
72	0xbe187710	-0.14889169
73	0xbe4f1c61	-0.2022567
74	0x3e67438f	0.22584365
75	0xbcaca08b	-0.021072647
76	0xbe564fe9	-0.20928921
77	0xbe592df2	-0.21208933
78	0xbe82a60e	-0.25517315
79	0xbe890d79	-0.2676809
80	0x3e85eac4	0.26155674
81	0x3d32f212	0.043687887
82	0xbe825601	-0.2545624
83	0xbda0a40c	-0.078437895
84	0xbe90ef27	-0.2830746
85	0x3e045632	0.12923506
86	0x3e1233e1	0.14277603
87	0xbdba3db6	-0.09093802
88	0xbe4e2943	-0.20132928
89	0xbdc32918	-0.095293224
90	0x3e021f76	0.12707314
91	0xbe05f885	-0.13083084
92	0x3d0cd265	0.034380335
93	0x3eab92a5	0.33510318
94	0xbd4d36e4	-0.050101176
95	0x3e96a67f	0.294239
96	0x3ea4065a	0.32036096
97	0x3e90cc4d	0.2828087
98	0x3e26bd34	0.16283113
99	0x3e5b70ce	0.2142975
100	0x3e9758e0	0.29559994
101	0xbe1c562d	-0.15267248
102	0xbca48f4a	-0.020087857
103	0xbe9f0db1	-0.31065133
104	0xbdf00113	-0.11718955
105	0x3d2ef4ea	0.042714037
106	0xbe906867	-0.28204653
107	0x3d91c8eb	0.071184
108	0x3e6c36ef	0.2306783
109	0xbd17eb7b	-0.037089806
110	0x3e558201	0.20850374
111	0xbe110eb8	-0.14165771
112	0x3e2515c4	0.16121584
113	0xbe21ac14	-0.15788299
114	0x3e15eb4f	0.14640544
115	0xbe355ca5	-0.17711122
116	0xbc5ced1a	-0.013484264
117	0x3e5c555f	0.21516941
118	0xbe367ea2	-0.17821744
119	0x3cbefd50	0.023314148
120	0x3ce488f8	0.027897343
121	0x3e378d6f	0.17925046
122	0xbe293d4c	-0.16527289
123	0xbe995353	-0.29946384
124	0x3d9c4665	0.07630614
125	0xbe55035f	-0.20802067
126	0x3b036841	0.0020051154
127	0xbe14f6f5	-0.14547332
128	0xbe173078	-0.14764583
129	0x3e9bec77	0.30453846
130	0xbe2f7604	-0.17134863
131	0xbe0872bd	-0.13325019
132	0x3e315cca	0.17320552
133	0xbe7ef1fe	-0.24897
134	0xbe730afc	-0.23734659
135	0x3f17d48e	0.5930871
136	0x3edb650f	0.4285054
137	0x3eeb0f67	0.4591019
138	0x3f0c3f43	0.5478403
139	0x3edfbe28	0.43699765
140	0xbd6ef2e5	-0.05833711
141	0x3e57abce	0.21061632
142	0x3f1a46e4	0.6026442
143	0x3ee10deb	0.4395593

cnn_stack.0.bias f4 [16]
0	0xbd2d6e26	-0.042341374
1	0x3d844fba	0.06460519
2	0x3e929dd0	0.28636026
3	0xbdd7ac5d	-0.105309226
4	0x3d0ce527	0.034398224
5	0x3df4a504	0.11945537
6	0x3ec7ef26	0.39049643
7	0x3e935055	0.28772226
8	0xbc82efe7	-0.015983535
9	0x3e14d029	0.14532532
10	0x3e13af5d	0.14422365
11	0x3dbf75e9	0.093486615
12	0xbe785733	-0.24252014
13	0xbd2dc8db	-0.04242788
14	0xbdb91b8d	-0.09038458
15	0x3d4d381e	0.050102346

cnn_stack.3.weight f4 [32, 16, 3, 3]
0	0xbd3bd670	-0.0458588
1	0x3d6d1bd6	0.057887875
2	0x3d6396ff	0.055563923
3	0xbda5d72f	-0.08097684
4	0xbd9be233	-0.076115035
5	0x3d12ee92	0.03587205
6	0xbc6e3d4f	-0.014540984
7	0x3d9b09b6	0.075702116
8	0x3cea25af	0.028582422
9	0xbb43ae48	-0.0029858518
10	0xbc2a9c03	-0.010413173
11	0xbd4891fa	-0.04896734
12	0x3cfb9302	0.030709747
13	0x3d8a4184	0.06750777
14	0xbd2388f5	-0.039925534
15	0x3dba7d5d	0.091059424
16	0xbca3edf1	-0.02001092
17	0xbd608218	-0.054811567
18	0x3ba4b798	0.005026769
19	0xbd131080	-0.035904408
20	0x3d167a33	0.036737632
21	0xbcc2c799	-0.023776816
22	0xbca840ff	-0.020538805
23	0x3d7c6d8d	0.061627913
24	0x3c43dc18	0.01195433
25	0x3d72145e	0.059101455
26	0xbcc0e106	-0.0235448
27	0x3d8531a3	0.06503608
28	0xbb9961cd	-0.004680848
29	0x3d80ee61	0.06295467
30	0x3d5f62d7	0.05453762
31	0x3d8eee28	0.069790184
32	0xbc159aa0	-0.009131104
33	0xbd190be6	-0.037364863
34	0x3d3552a4	0.044268265
35	0xbcb18afd	-0.02167272
36	0x3d069ad8	0.032862514
37	0xbca795a5	-0.020457098
38	0x3d8482fc	0.06470296
39	0x3d62cb3c	0.0553696
40	0x3d13e3f3	0.03610606
41	0x3d252b06	0.040324233
42	0x3d2e70af	0.042587932
43	0x3d98ba94	0.07457462
44	0xbd25f42b	-0.04051606
45	0x3d4ba97a	0.049722172
46	0x3ce1fe2d	0.02758702
47	0xbc96bd18	-0.018400714
48	0x3c07e460	0.008294195
49	0x3da6ddf9	0.08147807
50	0xbb0fdca5	-0.0021951583
51	0xbc7cfa10	-0.015440479
52	0x3c1b0f2b	0.009464066
53	0x3d4f3f57	0.050597515
54	0xbccc8d38	-0.024969682
55	0x3d840e1a	0.06448002
56	0x3d27855b	0.040898662
57	0xbd6ab8de	-0.05730521
58	0x3d998fd4	0.07498136
59	0x3c11c0fb	0.008896108
60	0xbda06b26	-0.07832937
61	0xbbd1436c	-0.006386211
62	0x3d52c61c	0.051458463
63	0x3c2f6ea2	0.010707529
64	0x3ccf1340	0.025277734
65	0x3c9a35dc	0.01882451
66	0x3d201267	0.03908005
67	0xbd14336e	-0.03618186
68	0xbbd635b4	-0.0065371636
69	0xbd9d0d4b	-0.07668551
70	0x3dadb066	0.08480911
71	0x3d898566	0.06714897
72	0x3da08458	0.078377426
73	0x3d2ff3b3	0.04295702
74	0xbcc7a940	-0.024372697
75	0x3d8a6d43	0.06759121
76	0xbc6f822c	-0.014618438
77	0xbd2cc132	-0.042176433
78	0x3cc0f846	0.023555886
79	0xbd901926	-0.07036047
80	0x3d95dc76	0.0731744
81	0x3d8edd0b	0.06975754
82	0x3d5e6c4d	0.054302502
83	0x3d9d81bd	0.07690761
84	0xbb93d441	-0.0045113866
85	0xbd6895a4	-0.056783333
86	0xbcfbacda	-0.03072207
87	0xbd818492	-0.06324114
88	0xbd332cbe	-0.04374384
89	0x3cb6ca7a	0.022313345
90	0x3d15047f	0.03638124
91	0x3d595863	0.053062808
92	0x3daf5122	0.08560397
93	0xba5bf858	-0.0008391193
94	0x3d889ea6	0.06670885
95	0x3d9b2c5f	0.075768225
96	0x3c167b88	0.009184726
97	0x3d0e5c23	0.034755837
98	0xbbb25061	-0.005441711
99	0xbc97689e	-0.018482503
100	0x3d152a76	0.036417447
101	0xbcd16cf4	-0.025564648
102	0xbd0d9594	-0.034566477
103	0xbc8034d6	-0.015650194
104	0x3d190dd3	0.0373667
105	0x3d52d914	0.051476553
106	0x3d63ffa7	0.05566373
107	0xbd64e24d	-0.05587988
108	0xbd451ab9	-0.048121188
109	0xba0afc00	-0.0005301833
110	0xbcec60e9	-0.028854804
111	0x3ca933c5	0.020654568
112	0x3d6c55dd	0.057699073
113	0x3d7c93e1	0.061664466
114	0x3ba51828	0.00503828
115	0x3d72b7a2	0.059257157
116	0x3ba95bd7	0.005168419
117	0xbb0a9510	-0.0021145977
118	0xbaf1bf98	-0.001844394
119	0x3d921a4f	0.07133924
120	0x3d634dd2	0.055494137
121	0x3c94161a	0.018076945
122	0x3d81a16a	0.063296154
123	0x3d2685cf	0.040654954
124	0x3b22432f	0.0024759283
125	0xbd195516	-0.03743466
126	0x3d37f929	0.044915352
127	0x3d1e6ae8	0.038676172
128	0xbc5e126e	-0.013554199
129	0x3c4ad38a	0.012379536
130	0xbd83213e	-0.06402825
131	0xbcfd05bb	-0.030886522
132	0x3cf9c0a0	0.030487359
133	0x3d1df074	0.038559392
134	0x3d2885c0	0.04114318
135	0x3dcd3bf7	0.10021203
136	0x3dc031b4	0.0938448
137	0x3d987938	0.07444996
138	0xbcd4424c	-0.025910519
139	0x3dd3e23f	0.103458874
140	0xbd8b94ad	-0.06815467
141	0xbca02905	-0.01955081
142	0x3d0cc312	0.03436572
143	0xbd3064cb	-0.043064874
144	0xbacad238	-0.0015474027
145	0xbd9337e2	-0.07188393
146	0x3cc4b868	0.024013713
147	0x3d692ec4	0.056929365
148	0x3d57a30b	0.052645724
149	0xbd83c2e2	-0.06433655
150	0xbd41e3af	-0.047336277
151	0x3d864a67	0.0655716
152	0x3cbe0123	0.023193901
153	0x3d795e0e	0.060880713
154	0xbd6a107e	-0.057144634
155	0xbd0beb4f	-0.034159955
156	0x3d3dd9e9	0.046350393
157	0x3d6d6830	0.05796069
158	0xbcecf03c	-0.028923146
159	0x3d24411c	0.040101156
160	0x3d671951	0.056420628
161	0x3d549f69	0.051909838
162	0x3d44fd64	0.048093215
163	0xbd0da542	-0.03458143
164	0x3d4d6c8f	0.050152358
165	0x3bb2f7df	0.0054616774
166	0xbd6e47b3	-0.058173846
167	0xbd0a648e	-0.033787303
168	0x3db4338e	0.08798896
169	0xbd79a7ca	-0.06095103
170	0xbcdc7864	-0.026912875
171	0x3b01af9e	0.0019788514
172	0xbd48b0bc	-0.048996672
173	0xbd61202b	-0.05496232
174	0xbd8b61d4	-0.068057686
175	0xbc0500a7	-0.008117831
176	0xbd620a9d	-0.055185903
177	0xbd381363	-0.044940364
178	0xbcea0736	-0.028567892
179	0x3d3d729d	0.046251882
180	0xbd45c616	-0.048284613
181	0x3c371df0	0.011176571
182	0xbc48428f	-0.0122229
183	0x3d7d5f5a	0.061858512
184	0x3d718b6e	0.05897086
185	0xbd3a420c	-0.045473143
186	0x3d7bc8aa	0.061470665
187	0xbd972905	-0.07380871
188	0x3ca67036	0.020317178
189	0xbd4d9fbe	-0.05020117
190	0xbd590d2a	-0.05299107
191	0x3c0fe88b	0.00878347
192	0xbd82d002	-0.063873306
193	0x3da24cc8	0.07924801
194	0xbd58fbd4	-0.052974537
195	0x3d8e87a8	0.06959468
196	0xbd5fd92b	-0.054650467
197	0xbc27c41e	-0.010239629
198	0xbd56b665	-0.05242004
199	0x3db0dc4d	0.08635769
200	0xbd71e653	-0.059057545
201	0x3da65891	0.081223615
202	0xbd51af10	-0.051192343
203	0x3d43c90a	0.047799148
204	0xbca02926	-0.019550871
205	0x3da0cee7	0.078519635
206	0xbccf3873	-0.025295472
207	0x3a8050e6	0.0009789735
208	0xbd3616a7	-0.044455197
209	0x3d5b5bbe	0.05355429
210	0xbd3237e2	-0.043510325
211	0xbcf12f6d	-0.02944156
212	0x3db2c8a7	0.08729678
213	0xbd37c673	-0.04486699
214	0xbcea718a	-0.028618593
215	0x3cc38d3e	0.02387106
216	0xbd44a52a	-0.048009075
217	0xbac1cebb	-0.0014786342
218	0xbd298b9a	-0.0413929
219	0xbb81c416	-0.003960143
220	0x3bf6383d	0.0075140283
221	0xbd9ea5ed	-0.077464916
222	0xbd84352d	-0.06455455
223	0x3d8c538f	0.06851875
224	0xbd8d0938	-0.06886524
225	0x3d88f4ea	0.06687339
226	0x3d2ca6da	0.04215131
227	0x3d80a767	0.062819295
228	0x3cc2989b	0.023754409
229	0xbc7019ee	-0.01465462
230	0x3c091c31	0.008368538
231	0xbd12aea2	-0.035811074
232	0xbd82a09b	-0.06378289
233	0xbd203235	-0.03911038
234	0x3dac2b36	0.08406679
235	0xbd9a76ad	-0.07542167
236	0xbb5999f3	-0.0033203333
237	0xbc409cde	-0.01175615
238	0x3cf9937c	0.030465834
239	0xbd1e268f	-0.03861099
240	0x3d1059d4	0.035241917
241	0xbd257f4d	-0.040404607
242	0x3d676068	0.056488425
243	0xbd1b7f0d	-0.037962962
244	0xbd9896d1	-0.07450641
245	0xbb9df804	-0.0048208255
246	0xbbbf36df	-0.0058353986
247	0xbd18eee2	-0.03733719
248	0x3d667857	0.05626711
249	0xbd1ded00	-0.0385561
250	0xbd6f4935	-0.058419425
251	0x3d9109b2	0.07081927
252	0xbd22a078	-0.039703816
253	0x3d2952a6	0.041338585
254	0xbc2fc84b	-0.010728906
255	0x3ca5aac9	0.020223038

cnn_stack.3.bias f4 [32]
0	0xbc247bc1	-0.010039271
1	0x3dd28723	0.102796815
2	0x3d0710af	0.032974895
3	0x3d8705c4	0.065928966
4	0xbd26879c	-0.04065667
5	0xbd37102c	-0.044693157
6	0xbd967435	-0.073463835
7	0xbd7ec0bf	-0.062195536
8	0x3db85072	0.08999719
9	0x3c9cf4d3	0.01915971
10	0xbd5d63f9	-0.05405042
11	0x3dfa21d4	0.122134835
12	0x3d94ba02	0.07262041
13	0xbd352d6b	-0.044232767
14	0xbd0652b5	-0.03279372
15	0x3dcb7480	0.0993433
16	0x3de67dd4	0.112544686
17	0x3d96ccbb	0.07363268
18	0xbd7a0d82	-0.06104804
19	0xbd6e72a0	-0.058214784
20	0x3d111085	0.035416145
21	0xbd53934a	-0.051654138
22	0xbc806426	-0.015672754
23	0x3db84c32	0.08998908
24	0xbd4f7fbc	-0.050658926
25	0x3dd83196	0.10556333
26	0x3d92046f	0.07129752
27	0xbcc70251	-0.024293097
28	0x3d609450	0.05482894
29	0x3dd494ec	0.10379967
30	0x3e07f74a	0.13277927
31	0x3d0233d8	0.031787723

cnn_stack.7.weight f4 [128, 1568]
0	0xbc80fdd4	-0.015746035
1	0xbcb5bb3e	-0.02218401
2	0xbbd9cd71	-0.006646805
3	0xbbac8532	-0.0052649016
4	0xbc9a8be8	-0.01886554
5	0x3c3d157c	0.011540767
6	0xbc2d9b8f	-0.01059617
7	0xbc476be5	-0.01217172
8	0xbc313c0f	-0.010817542
9	0xbb916b83	-0.004437865
10	0xba130239	-0.0005607936
11	0x3cc7089c	0.024296097
12	0xbca45cbd	-0.020063752
13	0x3853cf5d	5.0499442e-05
14	0x3cbfcdcc	0.023413561
15	0xbc1be92e	-0.009516044
16	0xbbdabaf7	-0.00667512
17	0xbb407c53	-0.0029370978
18	0xbbdb3be4	-0.006690489
19	0xb9841513	-0.00025192703
20	0x3c31a258	0.010841928
21	0x3c7c657f	0.015405058
22	0xbc804767	-0.015659047
23	0xbaaef2df	-0.0013347528
24	0x3b805dbb	0.0039174235
25	0x3b71aa00	0.003687501
26	0xbbacbe30	-0.0052716956
27	0x3be81f00	0.0070837736
28	0xbcad25a2	-0.021136109
29	0xbb24efb5	-0.002516729
30	0x3c80ba59	0.015713857
31	0xbc957f67	-0.018249227
32	0xbc6f88af	-0.01461999
33	0xbc9d97c0	-0.0192374
34	0xbcb56b65	-0.022145936
35	0x3cb21975	0.021740654
36	0x3c8e8307	0.017396463
37	0xbc83bacc	-0.016080283
38	0xbc54b614	-0.012982864
39	0x3c09d8c4	0.008413497
40	0xbc0617da	-0.008184398
41	0x3be4e9c8	0.0069858767
42	0x39df360b	0.0004257414
43	0xbcc668ff	-0.024219988
44	0xba817435	-0.0009876551
45	0xbc0fc679	-0.008775347
46	0x3b2d9580	0.0026486814
47	0x3c1126ff	0.008859395
48	0xbcbf5180	-0.023354292
49	0x3c1cb7ad	0.009565276
50	0x3c66d60e	0.014089121
51	0x3b5b45ae	0.003345828
52	0x3be77f4a	0.0070647346
53	0x3b8f4a71	0.004372888
54	0xbb89854e	-0.0041967994
55	0xbbf14260	-0.007362649
56	0xbb7fe405	-0.0039045822
57	0xb9a79e50	-0.00031970674
58	0x3c77d387	0.015126116
59	0xbc49dd6d	-0.012320858
60	0xbba211e6	-0.0049459813
61	0x3a8bfa8a	0.0010679525
62	0x3c9dd1cc	0.019265078
63	0x3c25189a	0.010076666
64	0xbc2a0d01	-0.010379077
65	0xbc527d2c	-0.012847226
66	0x3cde43ea	0.027131993
67	0xbbcec744	-0.0063103754
68	0xbc9f5b59	-0.019452738
69	0xbc6f0f05	-0.014590983
70	0xbb8963ae	-0.004192791
71	0x3c9f197c	0.019421332
72	0x3b80067e	0.003907024
73	0xba4b5a79	-0.0007757317
74	0x3c193a4c	0.009352278
75	0x3c616c3f	0.013758718
76	0xbc30fd89	-0.010802635
77	0x3c92ddcb	0.017928025
78	0xbcac0c6b	-0.021002015
79	0x3c4511e4	0.012028191
80	0x3bd022f4	0.006351823
81	0x3ca3f4c3	0.020014172
82	0x3cd0d8db	0.02549403
83	0xbc52c8af	-0.0128652295
84	0x3cd0bb38	0.025479898
85	0x3bff823b	0.007797507
86	0x3bfccdfe	0.007714986
87	0x3cc2779c	0.023738675
88	0x3ba60227	0.0050661745
89	0x3c3bec94	0.011469979
90	0xbb441ca4	-0.0029924298
91	0xbc1fb676	-0.009748092
92	0xbbe033e7	-0.0068421247
93	0x3c9d4ec8	0.019202605
94	0x3c48b094	0.012249131
95	0x3ca85ee7	0.020553065
96	0xbc6d9415	-0.014500638
97	0xbcc6e3be	-0.024278518
98	0x3b65950d	0.0035031468
99	0xbc5e6913	-0.013574856
100	0xba5d0221	-0.0008430798
101	0x3c465ee6	0.0121075865
102	0x3b4aeb97	0.0030963176
103	0xbc887bfc	-0.016660683
104	0xbca12ea7	-0.019675566
105	0x3b2c2027	0.0026264281
106	0xbc1790d6	-0.00925084
107	0xbc25e074	-0.010124315
108	0xbc9c7e7a	-0.019103277
109	0x3c36e198	0.011162184
110	0x3c39152b	0.011296551
111	0x3c832252	0.016007576
112	0x3ca2fab2	0.019894931
113	0x3caf5bd6	0.021406095
114	0xbbca9d89	-0.0061833304
115	0x3c2c136d	0.010502678
116	0x3c8e4ea7	0.017371489
117	0xbc2abf97	-0.010421655
118	0xba338e92	-0.0006849553
119	0xbc65e8cb	-0.014032553
120	0xbc874043	-0.016510135
121	0xbca5a16e	-0.020218577
122	0x3c68588d	0.014181268
123	0x3c22aecb	0.009929369
124	0xbc386b24	-0.011256013
125	0x3be94e73	0.0071199476
126	0x3bf82279	0.007572469
127	0xbcb3a725	-0.021930287
128	0xbcb8c0cc	-0.02255287
129	0x3ba04b3c	0.004891781
130	0xbc9e2667	-0.019305421
131	0xbc8e5005	-0.01737214
132	0x3c69c6af	0.014268561
133	0xbbeed1f0	-0.00728821
134	0x3cbc0d33	0.022955513
135	0xbc0a421e	-0.008438615
136	0xbc34da96	-0.011038443
137	0xbc4a05be	-0.012330471
138	0xbcb2300a	-0.021751422
139	0xba3065f1	-0.00067290576
140	0xbc921f87	-0.017837299
141	0x3c54c3ac	0.012986105
142	0xbc8e3671	-0.017359944
143	0x3c8909d4	0.01672832
144	0x3cd7fb09	0.02636482
145	0x3c0defb6	0.008663109
146	0xbc19e5fb	-0.0093932105
147	0xbc3b9f1d	-0.01145151
148	0x3c16b0c0	0.009197414
149	0xbb19bc68	-0.0023458246
150	0x3be5fa1b	0.0070183403
151	0xbc286cdf	-0.010279863
152	0x3c37d7bd	0.01122087
153	0x3ad9c5cc	0.0016614734
154	0xbc0434c2	-0.008069219
155	0x3ba1b0c4	0.004934402
156	0x3c9c24ba	0.019060481
157	0x3c9917c6	0.018688094
158	0xbc2cad7a	-0.010539407
159	0x3b5b741b	0.0033485952
160	0xbcbf1785	-0.023326645
161	0xbc9e9de9	-0.019362407
162	0x3bcb6260	0.0062067956
163	0x3cb51612	0.02210525
164	0xbb654d70	-0.0034988783
165	0x3c540beb	0.012942295
166	0xbaa4752e	-0.0012547129
167	0x3ccda6b9	0.025103914
168	0x3b20f628	0.0024560783
169	0x3c9f1e4c	0.019423626
170	0x3cb1599a	0.02164917
171	0x3c6fc748	0.014634915
172	0xbc84241e	-0.016130503
173	0xbc89845d	-0.016786749
174	0xbc8ce86e	-0.017200675
175	0x3c21e960	0.009882301
176	0x3a591bc0	0.0008282028
177	0x3c0b0b54	0.008486588
178	0x3ca8523e	0.020547029
179	0x3ca5a06a	0.020218093
180	0x3c355fe0	0.011070222
181	0x3c36482f	0.011125608
182	0x3c245c7c	0.010031816
183	0xbba25314	-0.0049537513
184	0x3bd6e218	0.006557714
185	0x3c427694	0.011869092
186	0x3c2b2fe8	0.010448433
187	0xbc1fa181	-0.009743095
188	0x3a50e5f2	0.0007968835
189	0x3c4c3d0c	0.012465727
190	0xba4ec060	-0.00078869425
191	0x3bf3b2f0	0.0074371025
192	0xbc6ba591	-0.014382736
193	0xbc53cf46	-0.012927836
194	0x3c9d2036	0.019180398
195	0x3cc48587	0.023989452
196	0xbc4ec54c	-0.012620281
197	0x3ad71a4a	0.0016411033
198	0xbb3a3476	-0.0028412617
199	0xbc18f24f	-0.009335115
200	0xbb5a4583	-0.0033305592
201	0xbc2f696c	-0.010706287
202	0xbbb1ef95	-0.0054301717
203	0x3c86c2a5	0.016450236
204	0x3c398151	0.011322335
205	0x3bc8888f	0.0061197947
206	0xbb9ab850	-0.004721679
207	0xbaba35e1	-0.0014206731
208	0xbc8d1754	-0.017223038
209	0x3c70d47b	0.014699097
210	0x3b40da15	0.0029426862
211	0xba167534	-0.00057395105
212	0x39af33c9	0.00033417184
213	0xbb9f07cf	-0.004853226
214	0xbc487a9a	-0.012236262
215	0xbccefd04	-0.025267132
216	0x3c176310	0.009239927
217	0x3bc086f7	0.005875464
218	0x3c8f3c21	0.017484726
219	0x3bb429ef	0.005498163
220	0xb9311262	-0.00016886884
221	0x3ca358ee	0.019939866
222	0xbb89e9e9	-0.0042087925
223	0x3c53251a	0.012887264
224	0xbcd9c4dc	-0.026583128
225	0xbb539f63	-0.0032291047
226	0x3c2ba236	0.010475686
227	0x3cb0e4d0	0.021593481
228	0x3c9115b4	0.017710544
229	0xbc88e915	-0.016712705
230	0xbc0754f4	-0.0082600005
231	0xba40df71	-0.0007357514
232	0xba250742	-0.0006295332
233	0x3cae2182	0.021256212
234	0x3c8b33ef	0.016992537
235	0xbc9210fb	-0.017830363
236	0xbc786424	-0.015160594
237	0x3b818eea	0.0039538043
238	0xbbeec33c	-0.0072864573
239	0x3cbf77c5	0.02337254
240	0xbb691802	-0.0035567288
241	0x3cd6dcf7	0.026228411
242	0x3ca2c404	0.019868858
243	0x3a830d3f	0.0009998454
244	0x3c1a506b	0.009418587
245	0xbc1bc5b4	-0.009507585
246	0xbca9f7cc	-0.020748042
247	0xbc62ba1b	-0.013838316
248	0xbbe52064	-0.0069923867
249	0xbc1932c0	-0.009350479
250	0x3cae80a3	0.021301573
251	0xbc402bfc	-0.011729237
252	0xbca69711	-0.020335706
253	0xbcc24ec4	-0.023719199
254	0x3bcae090	0.0061913207
255	0x3c7d0c20	0.015444785

cnn_stack.7.bias f4 [128]
0	0x3cc18e0f	0.02362731
1	0x3cb6cde9	0.022314982
2	0x3cc9c46d	0.024629796
3	0x3cd8e2a2	0.026475254
4	0xbc520981	-0.012819649
5	0xbbaf5a36	-0.00535133
6	0xbc9c2402	-0.019060139
7	0x3ca421a4	0.020035572
8	0xbca1bb5a	-0.019742656
9	0xbc636241	-0.013878406
10	0x3d1229d6	0.03568443
11	0x3a9a01dd	0.0011749823
12	0x3cbd44fc	0.023104183
13	0xbb2758eb	-0.0025535177
14	0x3c9015a6	0.017588448
15	0x3c924d82	0.017859224
16	0x3d166a44	0.036722437
17	0xbcba63f0	-0.022752732
18	0xbc466c61	-0.0121108005
19	0x3b87e507	0.0041471752
20	0x3c9c3be3	0.019071525
21	0xbbd76ef3	-0.0065745055
22	0xbcc5803f	-0.024109004
23	0x3c12f97f	0.008970617
24	0x3c34d711	0.011037604
25	0x3c95d3b8	0.018289432
26	0x3c581f66	0.01319108
27	0x3cc3ee71	0.023917409
28	0x3cc04e49	0.02347483
29	0x3cdb8d5f	0.02680081
30	0x3c7e7b31	0.015532301
31	0x3c9c2b7a	0.0190637
32	0x3ca014e5	0.019541213
33	0x3c6c550a	0.014424572
34	0xbc8ab50a	-0.01693203
35	0x3c3f7604	0.011685852
36	0xbc83883b	-0.01605617
37	0x3c664989	0.014055618
38	0x3ad8bdc6	0.0016536049
39	0xbb084374	-0.0020792158
40	0x3ba1e663	0.0049407943
41	0x3ba40a42	0.0050061056
42	0xbc915084	-0.017738588
43	0x3c25dd72	0.010123597
44	0xbb1c4d9a	-0.0023849965
45	0xbca82e8a	-0.020530004
46	0xbc82195f	-0.015881239
47	0x3c95e0db	0.018295696
48	0x3c9dde09	0.019270914
49	0x3a84b250	0.0010123942
50	0x3cc3aa89	0.023885028
51	0xbcbabc0e	-0.02279475
52	0x3ba62a80	0.0050709844
53	0xbca55e55	-0.020186583
54	0x3c6ece9d	0.014575628
55	0x3c7dc679	0.015489214
56	0x3ca78888	0.020450845
57	0xb9a34b00	-0.00031145662
58	0x3ca6e445	0.02037252
59	0xbc120461	-0.008912177
60	0x39de48f1	0.00042397485
61	0xbac81700	-0.0015265644
62	0xbc3173cf	-0.010830834
63	0xbcdfa147	-0.027298583
64	0x3c798847	0.015230245
65	0x3ba0c348	0.004906092
66	0x3a4db11d	0.00078465213
67	0xbabf1f80	-0.0014581531
68	0x3c25dc3f	0.010123312
69	0x3c7c5ec1	0.0154034505
70	0xbc8e5b9b	-0.017377665
71	0xbca658f7	-0.020306094
72	0xbcc79144	-0.02436126
73	0xbbe1c3da	-0.0068898024
74	0x3ba4ab99	0.005025339
75	0x3ceadf7b	0.028671017
76	0x3c13599f	0.008993535
77	0xbc2c9db4	-0.010535646
78	0x3c97cf70	0.018531531
79	0xbb8fabe3	-0.004384504
80	0xbc850f57	-0.016242666
81	0x3c6a12fa	0.014286751
82	0xbc44020e	-0.0119633805
83	0x3c065232	0.008198308
84	0xbc79ac5b	-0.015238847
85	0x3b53d7b7	0.003232462
86	0x3c9426d5	0.018084923
87	0x3c3fa644	0.011697356
88	0x3c8b7df5	0.017027834
89	0xbc68c23d	-0.014206466
90	0xbc245aba	-0.0100313965
91	0xbccb340b	-0.02480509
92	0xbc8dde5a	-0.01731794
93	0xbc68c53d	-0.0142071815
94	0x3cc5f4ef	0.024164645
95	0xba300774	-0.0006714978
96	0x3d009b84	0.03139831
97	0xbbdc058c	-0.0067145284
98	0x3bd010b3	0.006349647
99	0x3c55fd09	0.013060817
100	0xbc236fcd	-0.009975386
101	0x3b95774d	0.004561341
102	0xbc0f3648	-0.008740969
103	0x3c9beca5	0.01903374
104	0x3c322e4f	0.010875299
105	0xbc1949ef	-0.009356006
106	0xbbdbbff1	-0.006706231
107	0x3b5c7bd0	0.0033643134
108	0xbc092d46	-0.00837261
109	0x3b9164d2	0.0044370675
110	0x3d115562	0.035481818
111	0x3b097df0	0.0020979606
112	0xbb8c2b72	-0.00427764
113	0x3c0f7215	0.008755227
114	0xbc0795f4	-0.008275498
115	0x3c58e555	0.013238271
116	0xbcc173ac	-0.023614727
117	0x3ce37a2e	0.02776822
118	0x3b65c5ad	0.003506045
119	0xbc8b86e1	-0.017032089
120	0xba7df49f	-0.00096876355
121	0x3d064136	0.032777034
122	0x3b47bde8	0.0030478183
123	0xbc5ecc74	-0.01359855
124	0x3cea7769	0.028621392
125	0xbc9ea020	-0.019363463
126	0x3bd2f090	0.0064373687
127	0x3d1c3888	0.03813985

cnn_stack.9.weight f4 [10, 128]
0	0x3e0c2cfb	0.13689034
1	0xbce6dd29	-0.02818163
2	0x3de6ad0a	0.11263473
3	0xbca0f69f	-0.019648848
4	0xbde2e8fb	-0.11079594
5	0xbe03435b	-0.12818663
6	0x3dafe90a	0.085893705
7	0x3c1802e4	0.009278033
8	0x3ba9814d	0.0051728846
9	0x3d143d6b	0.036191385
10	0x3d8bf8f9	0.06834597
11	0x3c7c2356	0.015389284
12	0x3cbe7ec7	0.023253812
13	0x3d1d77bd	0.03844427
14	0x3d5f42e9	0.05450717
15	0x3cbd6496	0.023119252
16	0xbd10e0ef	-0.035370763
17	0x3d37bc6e	0.044857435
18	0x3cecb601	0.02889538
19	0x3d5b74ac	0.053578064
20	0x3c220411	0.009888665
21	0x3be54893	0.006997177
22	0xbcdca7d6	-0.0269355
23	0x3d7bd625	0.06148352
24	0x3d80b0dc	0.06283733
25	0xbe04546e	-0.12922832
26	0xbd8e5769	-0.06950266
27	0x3d8369d9	0.06416673
28	0x3d27e9ac	0.04099433
29	0xbdd223c3	-0.10260727
30	0xbd8bbb5b	-0.068228446
31	0xbd388544	-0.045048967
32	0x3df64527	0.120249085
33	0x3b839191	0.0040151556
34	0x3d6887b2	0.056770034
35	0xbd60eb90	-0.05491215
36	0x3d714205	0.05890085
37	0xbd9fb795	-0.07798687
38	0x3d910d7e	0.070826516
39	0xbcf468d8	-0.02983515
40	0xbd7fdd01	-0.062466625
41	0x3c4bb690	0.012433663
42	0x3d8c0b4a	0.06838091
43	0xbd01f790	-0.031730235
44	0x3d9e9a5e	0.07744287
45	0xbd59acfc	-0.053143486
46	0x3c56045e	0.013062565
47	0xbd48115b	-0.048844676
48	0x3de06416	0.1095659
49	0x3d5845b2	0.05280084
50	0x3cf0b900	0.02938509
51	0x3caa7ac8	0.0208105
52	0x3be839e7	0.0070869806
53	0xbd28c603	-0.041204464
54	0x3d2ea13a	0.042634226
55	0xbc18ba82	-0.009321811
56	0x3d1aadd7	0.037763443
57	0x3d99d07d	0.07510469
58	0x3d832f2e	0.06405483
59	0xbe154f6a	-0.14581075
60	0xbd51511e	-0.05110275
61	0x3c269818	0.010168098
62	0xbd846754	-0.06465021
63	0xbdad45ce	-0.0846058
64	0x3be781ef	0.00706505
65	0xbd2e6889	-0.04258016
66	0x3c037f92	0.008026021
67	0x3d583763	0.052787196
68	0x3daebe32	0.085323706
69	0xbc20f3aa	-0.009823719
70	0x3d2453a0	0.040118814
71	0xbce97a0e	-0.028500583
72	0x3cdd7a84	0.027035959
73	0xbdaac8b9	-0.08339066
74	0x3d062fbd	0.03276037
75	0xbdc17304	-0.094457656
76	0x3df5daf9	0.12004656
77	0xbd07700b	-0.033065837
78	0xbd10723e	-0.0352652
79	0x3d1e22fc	0.038607582
80	0x3da41e8f	0.08013641
81	0x3d804275	0.06262676
82	0xbd87864f	-0.06617414
83	0x3d3f4e6e	0.046705656
84	0xbdca150e	-0.09867297
85	0x3d3f1f02	0.04666043
86	0xbd92a886	-0.071610495
87	0x3d1d57f5	0.03841396
88	0xbe1614f3	-0.14656429
89	0x3da73dc6	0.08166079
90	0xbdc61d6d	-0.09673581
91	0x3d9d68ac	0.0768598
92	0xbd5fd62c	-0.05464761
93	0xbd8cc2da	-0.068731025
94	0xbdced608	-0.10099417
95	0xbd05df6a	-0.032683767
96	0xbe26f61d	-0.16304822
97	0x3d057a7a	0.032587506
98	0xbdd3867f	-0.103283875
99	0x3cb9f911	0.022701772
100	0x3de1f96f	0.11033904
101	0x3d7a5bf7	0.06112286
102	0x3c6fd9f2	0.014639365
103	0xbd0b4dd3	-0.034009766
104	0x3d63f906	0.05565741
105	0xbe2214a2	-0.15828183
106	0xbcf6e2ef	-0.030137507
107	0x3d4402b1	0.04785413
108	0xbd8633e2	-0.065528646
109	0x3d8d313a	0.06894155
110	0xbd225374	-0.03963037
111	0xbdb24664	-0.08704832
112	0x3d4a3ac2	0.049372442
113	0x3d52f15a	0.051499702
114	0xbcbbc526	-0.022921156
115	0x3cb40b25	0.02197797
116	0x3c7a0aea	0.015261391
117	0x3d8c8f0e	0.06863223
118	0x3e08d39c	0.13361973
119	0xbbf90487	-0.0075994167
120	0x3dd0ac7d	0.101891495
121	0xbc157744	-0.009122673
122	0x3d77e556	0.060521446
123	0x3cb853b6	0.022500854
124	0x3dbac5ed	0.091197826
125	0x3d8066bc	0.06269595
126	0xbc946ffc	-0.018119805
127	0xbe00f83f	-0.12594698
128	0x3c884d2d	0.016638363
129	0x3d8b3754	0.067976624
130	0xbc8a14cb	-0.016855618
131	0x3db449ca	0.08803137
132	0xbdad9157	-0.08474987
133	0xbb8bcd3d	-0.0042664097
134	0xbc99fb76	-0.018796664
135	0x3d4a8c76	0.04945036
136	0xbc98fe17	-0.018675847
137	0xbdce5439	-0.10074658
138	0x3cb92c39	0.022604095
139	0xbdbf0ca4	-0.09328583
140	0x3d9709e3	0.073749326
141	0x3d873221	0.06601358
142	0x3ded0720	0.115736246
143	0xbd92cf48	-0.07168442
144	0xbdcf5a21	-0.101246126
145	0x3d311baa	0.043239273
146	0xbdd6dfe9	-0.10491926
147	0x3b96bca4	0.0046001244
148	0x3e0cebb1	0.13761784
149	0xbd5f4e09	-0.05451778
150	0xbd3d5f74	-0.04623361
151	0xbd64f809	-0.055900607
152	0x3d70a975	0.058755357
153	0x39a20913	0.0003090581
154	0xbd5af5a5	-0.05345692
155	0x3e081a5c	0.13291305
156	0xbdca9834	-0.09892312
157	0x3d2cc6cd	0.04218178
158	0xbdc30297	-0.09521978
159	0x3d0e4ece	0.034743123
160	0x3c0f8100	0.008758783
161	0xbd381f53	-0.044951748
162	0x3d93d283	0.07217886
163	0xbcbb38cc	-0.022854231
164	0xbc6b00fd	-0.014343497
165	0xbdacfec2	-0.08447029
166	0x3c14cc47	0.009081907
167	0x3da7b761	0.081892736
168	0x3db71261	0.089390524
169	0xbda88ac8	-0.082295954
170	0xbe025554	-0.12727863
171	0x3c15f90c	0.009153616
172	0x3d876f45	0.0661302
173	0x3c87ccf4	0.016577221
174	0x3de4e4b1	0.11176432
175	0x3d1765f8	0.03696248
176	0xbcafb60f	-0.021449117
177	0xbda0aff7	-0.07846063
178	0x3dbfc963	0.09364583
179	0x3ce61308	0.028085247
180	0xbdcb7536	-0.099344656
181	0xbd4e7912	-0.05040843
182	0xbe4f52fe	-0.20246503
183	0xbd749f22	-0.059722073
184	0xbc9d7e11	-0.019225152
185	0xbcad164b	-0.021128794
186	0x3d27389d	0.040825475
187	0x3dc9bc5a	0.09850378
188	0x3d76c22e	0.060243778
189	0x3d33c826	0.04389205
190	0xbc124237	-0.00892692
191	0xbc51b33a	-0.012799079
192	0x3d0cf548	0.034413606
193	0x3dabae2f	0.08382832
194	0x3da87d2b	0.08226999
195	0xbc983752	-0.018581066
196	0x3e227337	0.15864263
197	0x3d273ae4	0.040827647
198	0xbd78aac6	-0.060709737
199	0xbd9bf94f	-0.07615911
200	0xbd631628	-0.05544105
201	0xbd4336c3	-0.047659647
202	0x3e13fb28	0.14451277
203	0xbdd0e6c1	-0.10200263
204	0x3d510d47	0.051038053
205	0x3bb4358a	0.0054995464
206	0xbd48da3f	-0.04903626
207	0xbdc54e65	-0.09634093
208	0x3d9395f3	0.07206335
209	0xbdf36a8a	-0.11885555
210	0xbdde1c66	-0.1084526
211	0xbd104a37	-0.035227027
212	0x3d668623	0.056280266
213	0xbd7b6628	-0.06137672
214	0xbd266937	-0.040627684
215	0xbd27e4ac	-0.040989563
216	0x3d72859d	0.059209455
217	0x3df631d7	0.12021225
218	0x3d942bd4	0.07234922
219	0x3db0f4b9	0.08640427
220	0xbc9a51bf	-0.018837808
221	0xbc64a01f	-0.0139541915
222	0xbdd7d7b1	-0.10539187
223	0x3d736ff1	0.059432928
224	0xbdbfc28d	-0.093632795
225	0xbdfb7a98	-0.12279242
226	0x3bbda41e	0.0057873866
227	0xbd58da92	-0.05294282
228	0x3def2966	0.11677818
229	0x3d9c758d	0.076396085
230	0xbdbe0c91	-0.092797406
231	0xbd3cbed4	-0.046080425
232	0xbc130c8f	-0.008975162
233	0x3d2c5733	0.042075347
234	0x3d99c7cd	0.07508812
235	0x3d53cec1	0.051710848
236	0x3da37a85	0.07982353
237	0xbd75afe2	-0.059982188
238	0x3d4c09dd	0.049814094
239	0x3bdb1714	0.0066861007
240	0xbe121058	-0.14264047
241	0x3d800154	0.06250253
242	0x3c6f8f8c	0.014621627
243	0x3d9563bc	0.072944134
244	0x3da29102	0.07937814
245	0x3cbaec1f	0.02281767
246	0xbd2bec38	-0.041973323
247	0xbd964030	-0.073364615
248	0x3da26c69	0.07930834
249	0xbc3ba2fd	-0.011452434
250	0x3d0dc733	0.0346138
251	0xbd190f3c	-0.037368044
252	0xbd008a09	-0.03138164
253	0xbcdc1628	-0.026866034
254	0x3d033228	0.032030255
255	0xbde54beb	-0.11196121

cnn_stack.9.bias f4 [10]
0	0x3d8a64e0	0.06757522
1	0x3c43295f	0.011911719
2	0xbd1ac47c	-0.03778504
3	0xbbdac2a0	-0.006676033
4	0xbe1f16b9	-0.15536012
5	0x3e0f6dcb	0.14006726
6	0x3d5c449e	0.053776376
7	0x3dba361b	0.09092351
8	0xbdb898fd	-0.09013555
9	0xbd829841	-0.063766964
