fashion_model.onnx (onnx, 17062 bytes, 3 tensors)

cnn_stack.0.bias f4 [16]
0	0xbd2d6e26	-0.042341374
1	0x3d844fba	0.06460519
2	0x3e929dd0	0.28636026
3	0xbdd7ac5d	-0.105309226
4	0x3d0ce527	0.034398224
5	0x3df4a504	0.11945537
6	0x3ec7ef26	0.39049643
7	0x3e935055	0.28772226
8	0xbc82efe7	-0.015983535
9	0x3e14d029	0.14532532
10	0x3e13af5d	0.14422365
11	0x3dbf75e9	0.093486615
12	0xbe785733	-0.24252014
13	0xbd2dc8db	-0.04242788
14	0xbdb91b8d	-0.09038458
15	0x3d4d381e	0.050102346

cnn_stack.3.bias f4 [32]
0	0xbc247bc1	-0.010039271
1	0x3dd28723	0.102796815
2	0x3d0710af	0.032974895
3	0x3d8705c4	0.065928966
4	0xbd26879c	-0.04065667
5	0xbd37102c	-0.044693157
6	0xbd967435	-0.073463835
7	0xbd7ec0bf	-0.062195536
8	0x3db85072	0.08999719
9	0x3c9cf4d3	0.01915971
10	0xbd5d63f9	-0.05405042
11	0x3dfa21d4	0.122134835
12	0x3d94ba02	0.07262041
13	0xbd352d6b	-0.044232767
14	0xbd0652b5	-0.03279372
15	0x3dcb7480	0.0993433
16	0x3de67dd4	0.112544686
17	0x3d96ccbb	0.07363268
18	0xbd7a0d82	-0.06104804
19	0xbd6e72a0	-0.058214784
20	0x3d111085	0.035416145
21	0xbd53934a	-0.051654138
22	0xbc806426	-0.015672754
23	0x3db84c32	0.08998908
24	0xbd4f7fbc	-0.050658926
25	0x3dd83196	0.10556333
26	0x3d92046f	0.07129752
27	0xbcc70251	-0.024293097
28	0x3d609450	0.05482894
29	0x3dd494ec	0.10379967
30	0x3e07f74a	0.13277927
31	0x3d0233d8	0.031787723

cnn_stack.9.bias f4 [10]
0	0x3d8a64e0	0.06757522
1	0x3c43295f	0.011911719
2	0xbd1ac47c	-0.03778504
3	0xbbdac2a0	-0.006676033
4	0xbe1f16b9	-0.15536012
5	0x3e0f6dcb	0.14006726
6	0x3d5c449e	0.053776376
7	0x3dba361b	0.09092351
8	0xbdb898fd	-0.09013555
9	0xbd829841	-0.063766964
